diabetes_model.pt (torch_old, 6771 bytes, 6 tensors)

weight f4 [20, 8]
00000000: e6a6 283f 5161 28bf 4a19 7e3e f3d2 cb3b
00000010: 0a36 27bf 7564 de3e f0f2 143f 5508 b53d
00000020: 0df6 8ebe c18d 8a3e d460 9fbe 35a1 4cbe
00000030: c490 7a3e de9f 4ebe 4e68 1e3e 8038 013e
00000040: 90e2 36be 91ae c5bd b28f 923d 7ccf d4be
00000050: 68f2 8f3d 66f9 3ebe 56b9 b53e 29b6 86be
00000060: 4588 98be a889 83bc 7af7 fd3d 2caa 413e
00000070: 3165 113d 9fff 353e b2c2 e7bf 81f0 c8be
00000080: a341 873e ecd1 d7bd 8449 f9bd 96cb fcbd
00000090: cc5b 3cbe 0011 7cbc 5841 43be 2429 d23d
000000a0: da6b edbe 19e2 6a3e bdcd c2bd 9a32 093c
000000b0: 349f cc3d 17b8 8dbe 0e94 a2bf 331f 17bf
000000c0: a7f2 0d3e ced3 bbbe 2625 bbbe a1ea 52bd
000000d0: 1b73 f43d d0ad 773e 442a 8bbf a5d0 f03e
000000e0: 0022 d3bd d5be 9a3e e7e2 f5bd 9c14 803e
000000f0: 9559 703e 190e 33be bf87 0b3e aa7d 523e
00000100: a4ca d5be dd2b da3d 38a1 c1be 17a6 5f3e
00000110: 374d 2d3d 5f3f cdbe 9a57 103f 006e ea3e
00000120: a283 8bbd e653 253e 8f1c 833d 09c3 c2be
00000130: 7d40 0ebc 4a52 a3be 13ec a8bf 9e47 783e
00000140: 3af4 80be 804f d9be bdfb 833e a08d a13e
00000150: ab3a 083e 0414 33be 645b b43f 2425 64bf
00000160: c355 3dbe 8f28 8b3e 9b6a c5be cc65 0dbf
00000170: 0171 11be a6fe 7d3e 2929 07bf 6ae6 72be
00000180: a187 283f 0dbd 2e3e d58d 9ebe 7c83 fd3e
00000190: cfb1 2d3e 94da d3bd c2a3 28bf 46b0 a9be
000001a0: dab5 d5bb 84e1 76be 7d52 aa3e a2b1 9a3e
000001b0: 9168 abbd dc51 8fbe f2cc 1ebf c4a2 693e
000001c0: 67e5 34bf 3974 06bb 8856 b83d 7610 953e
000001d0: 3fa0 8f3e 32fa 8dbe 281d 6d3f e4c9 9cbe
000001e0: 398a 91be d5bb a43e c515 fb3c b920 083e
000001f0: 2f12 50be a32f ed3d 62a6 2c3f 13fd 823e
00000200: 8307 4ebe 15a9 6a3e 83b5 2a3c f0a2 193d
00000210: b091 f9bd e83c 6cbe 841e 46bf 26ae 883e
00000220: 0013 da3d 337c 7cbe 50e3 043d 98ee 39bd
00000230: 988e 9c3d 4d18 0ebe f67e 603e 45cc 98be
00000240: ed8f 763b c92b 38be a8b5 883e 02ad a5be
00000250: 672e a83d f23f a33e f2d4 b3bf 5e82 5dbe
00000260: 9691 1f3f 83e8 33be c1fa 463e 733d 16be
00000270: 829d b53d 9328 a23d 771c 863f 5b0b ccbd
0.65879667 -0.65773493 0.24814335 0.0062202155 -0.6531683 0.43436018 0.58183193 0.0883948
-0.27922097 0.27061275 -0.31128561 -0.1998337 0.24469286 -0.20178172 0.15469477 0.1261921
-0.17859864 -0.096524365 0.07156314 -0.41564548 0.07028657 -0.18649825 0.35492963 -0.26310852
-0.29791465 -0.01605685 0.12400718 0.18912572 0.035496894 0.17773293 -1.8106291 -0.3924599
0.26417264 -0.10538086 -0.12172225 -0.123435184 -0.18394393 -0.0153849125 -0.19067895 0.10261753
-0.46371347 0.22937812 -0.09511898 0.008373881 0.09991303 -0.27679512 -1.2701433 -0.5903198
0.13862096 -0.36685032 -0.3655178 -0.05149329 0.11936017 0.24187398 -1.0872273 0.47034183
-0.10309219 0.30223718 -0.12006169 0.25015724 0.23471673 -0.17485847 0.13626002 0.2055575
-0.41756165 0.106528975 -0.37818313 0.21840702 0.042309966 -0.4008741 0.5638367 0.45787048
-0.06812216 0.16145286 0.064019315 -0.38039425 -0.008682367 -0.3189872 -1.3197044 0.2424607
-0.2518633 -0.42443466 0.25778 0.31553364 0.1330363 -0.17488104 1.409039 -0.8911917
-0.18489747 0.2717938 -0.38557896 -0.55233455 -0.14203264 0.24804172 -0.5279718 -0.23720708
0.65831953 0.17064305 -0.30967584 0.49514377 0.1696236 -0.10344425 -0.65874875 -0.33142298
-0.0065219225 -0.24109465 0.3326606 0.30213648 -0.08369554 -0.2799214 -0.6203147 0.22815996
-0.7066254 -0.0020516051 0.090008795 0.2911412 0.28051946 -0.27729946 0.92622614 -0.3062278
-0.28425768 0.32174554 0.030650029 0.13293733 -0.20319436 0.115813516 0.6744138 0.25583705
-0.20120053 0.22916062 0.010419252 0.037508905 -0.12185991 -0.23070109 -0.77390313 0.26695365
0.10648155 -0.24656753 0.032443345 -0.045393556 0.07644385 -0.13876458 0.21923432 -0.29843345
0.0037622408 -0.17985453 0.26701093 -0.32358557 0.082119755 0.31884724 -1.4049361 -0.21631762
0.6233152 -0.17569165 0.19431593 -0.14671879 0.08867933 0.07917895 1.0477437 -0.099631034

bias f4 [20]
00000000: 002d 1cbe f29f 9cbf 5346 adbe 8ed0 f13f
00000010: 3083 a43d b46f 8f3e 1331 1cbf 0749 a33e
00000020: 3d98 5f3f 4dd9 ef3f a693 2b3d 1945 d43e
00000030: ff0f 72be 6300 c53f 3b01 04bf dbd1 98bf
00000040: cd1c a13f 1822 62bd 78d0 0c40 edc8 95be
-0.15251541 -1.2236311 -0.33842716 1.8891771 0.080328345 0.2801491 -0.6101238 0.31891653
0.8734167 1.873819 0.041888855 0.41458967 -0.23638915 1.5390743 -0.5156438 -1.1939043
1.2586914 -0.055208296 2.200224 -0.29254857

weight f4 [20, 20]
00000000: 55ca 87be c766 bbbc 436a 943d 0314 803e
00000010: 6055 38be 042b 9b3d 8ae6 bebe 9f88 ec3d
00000020: 3016 01be 8815 0b3e c738 a63f 3f15 543e
00000030: 7b10 403c c186 853d 50c8 b63d 9ebc 1ebe
00000040: a00e 413e 1a9e f4bd b106 a1bd c790 413e
00000050: 66c5 c23d 95c7 19bd 3ab0 1f3e 9a2b 2f3e
00000060: e8af c23d 918c 733e e0c7 02be 7b5c 013d
00000070: fd35 61be d9d8 ab3d 17f2 363f de85 bb3e
00000080: fc3f 393d f536 9ebd 880f 54be fc02 57bd
00000090: 4e49 cb3d 64a7 1fbe a4b6 a63e 1094 74bd
000000a0: eaad b23c 739c 723d dea1 35bd afa5 293d
000000b0: 1027 503e b063 453b aa6a cc3d 558b 86be
000000c0: 95ea d5bd 1f18 1dbe 4d0d 183e a2cc 423e
000000d0: 2d49 82bd bcb9 283d eb83 b13d 7bc0 12be
000000e0: 6fca 8b3c b20f 253e 051b 4ebe 6c89 58be
000000f0: 40c2 9fbe 5158 db3c 9a7c 233d 4490 28be
00000100: d2fc 113e 6d6a 8fbe cb75 e2bd 754c 32be
00000110: f0e6 833d 2ba8 afbe 4a60 413e 34fb a6be
00000120: 5704 89bd f72b 1fbe c7c2 a5bd dd60 c03d
00000130: d588 b6bc 50e3 423d 5525 7d3d 45b7 863d
00000140: 4dde 013f 106b 8dbd 8c64 c9bd 11c0 cdbd
00000150: 2008 3bbe 637f 29bf 58d9 c23e ed79 263e
00000160: b191 97bf a01b 2cbe c3e3 4bbf 7847 2f3d
00000170: de35 81be 8265 c3bc e976 623e ae7f 1cbd
00000180: 4951 0fbe 30f3 39bc 308c 1cbd bc1c 063e
00000190: 6dc0 e33e 898e 113d e176 78bd b819 5abe
000001a0: c0e0 bdbb 264b bf3d 713c 6a3e 4913 3d3e
000001b0: 3020 913d b3d9 303d 9a3b 78bf 2907 0ebe
000001c0: 9454 2ebe 3aaa 073e ca52 cbbd 9ff6 c13d
000001d0: 7d88 613d 857a 26be 4af9 0dbd a73d bf3c
000001e0: 46c0 23be 8228 f6bc d595 9d3c d77a d7bd
000001f0: b4a5 d83d a2cf 13bd 65d0 b2be 8d9a 443e
00000200: f596 2b3d 197e cebd 1650 8d3f e171 dd3d
00000210: 8e7f c1bd 5382 37be 6c12 d0bc 4d0d 0cbe
00000220: 82d3 123e cede 1e3e f9a7 723e 17fa 003e
00000230: 51e3 373e f864 3d3d e8b8 f5bc 7027 b73e
00000240: bef5 fbbd 66e6 53be dabe eabf 9b11 8fbe
00000250: c2d1 e23d b46f d7bc e66d c03e dd43 8cbd
00000260: 0a3d 81be 8a14 67be 3e9a 88be 09da 193e
00000270: e497 22be d023 d3bd 92cf e5bd 05fd 0e3e
00000280: 1e31 913d d3e2 62be 7160 30bc 4149 a13d
00000290: 2806 3cbe 9cbc df3d 56ca 2bbf 4515 59be
000002a0: 01ff 8e3d cc34 8dbc af72 303f 51a1 a1be
000002b0: 3bd2 54bd 70d8 49bd f667 483d a127 d23d
000002c0: 974f 21be b41c 52bd 9ff5 95bd 65d8 4bbe
000002d0: 8b8c dbbd 000e 8abc 2f16 d1bd da19 5dbc
000002e0: 8f6c 36be 8882 9bbd 34e6 e5bd 8b39 86be
000002f0: 3c65 f43d d4e9 4fbd 2e88 103e a807 e33d
00000300: 0810 103d f3df 123e b7c3 26be 966e 7dbd
00000310: 3512 70be 46eb 4a3e 3fd4 46bd daf6 5abe
00000320: 4865 f6be e40e ebbe 193a 3cbe 0e6f 2fbc
00000330: 9891 31be 7960 183c 15d0 d5bf e05f 8bbe
00000340: cfa3 733d f008 d43d d653 f83e b094 293f
00000350: 7057 34bf 4c99 d03e 02e5 813d 8c3d dd3c
00000360: 54f1 eebd bdec 44be 47f0 033f b680 183f
00000370: a975 87bd 000c 933c 9185 083e 6e5f 97bb
00000380: 2417 343e 0119 243e f7ba b6bd 0ce8 453e
00000390: b9ff 2e3d 8f3b c5bd af07 6f3f f520 09bc
000003a0: 7df3 453e b8ec 323f 8395 5a3d b259 63be
000003b0: ad96 cabd 14f3 22be 8da3 05be 8efd 5abe
000003c0: 6833 23bd e3d2 ef3b fa19 133d cd17 a1be
000003d0: ea27 30be 1940 883c a54c 923e 4f85 1c3e
000003e0: 57c6 bbbd e9ce abbb 0ad8 4abf 4c70 0cbe
000003f0: f193 dc3d f1be 2c3e d6dc 953d 4fbe c83d
-0.26521555 -0.022876156 0.0724683 0.25015268 -0.18001318 0.07576564 -0.37285262 0.11549496
-0.1260612 0.13582432 1.2986077 0.2071123 0.011722679 0.06519843 0.08924925 -0.15501639
0.18853235 -0.11944218 -0.078626044 0.18902884 0.09510307 -0.037543852 0.15594569 0.17106476
0.09506208 0.2378409 -0.12771559 0.031582337 -0.21993251 0.0839097 0.7146315 0.3662557
0.045227036 -0.07725326 -0.2070905 -0.05249308 0.09926091 -0.15591198 0.3256122 -0.059711516
0.021811444 0.059231233 -0.04434382 0.041417774 0.20327401 0.0030119233 0.09981282 -0.26278177
-0.104451336 -0.15341233 0.14848824 0.19023374 -0.063616134 0.041192755 0.086677395 -0.14331238
0.017064301 0.16119269 -0.20127495 -0.21146172 -0.31202888 0.026775511 0.03991375 -0.16461283
0.142566 -0.28010884 -0.110576235 -0.17411979 0.06440532 -0.3430799 0.18884388 -0.32613528
-0.06690281 -0.15544115 -0.080937915 0.09393475 -0.022282043 0.047580063 0.06180318 0.06577925
0.5072983 -0.06905186 -0.09833631 -0.100463994 -0.18264818 -0.6621 0.38056445 0.16257448
-1.1841336 -0.16807413 -0.7964441 0.042792767 -0.2523641 -0.023852114 0.22115673 -0.038207702
-0.13995852 -0.011349484 -0.03821963 0.13096899 0.44482747 0.035536323 -0.060660247 -0.21298873
-0.0057946146 0.09340505 0.22874619 0.18464388 0.070862174 0.043176364 -0.96965945 -0.13869919
-0.17024451 0.1324853 -0.099279 0.09470867 0.055061806 -0.16257675 -0.03466157 0.023344828
-0.15991315 -0.030048613 0.019236485 -0.10521477 0.1057848 -0.036086686 -0.34924617 0.19199581
0.04189201 -0.10082645 1.1040065 0.10812736 -0.09448157 -0.17920808 -0.02539941 -0.13676949
0.14338496 0.1551468 0.23696889 0.12595402 0.17957808 0.04623887 -0.029995397 0.35772276
-0.12302731 -0.20693359 -1.8339493 -0.2794312 0.110751644 -0.026298381 0.37583846 -0.068488814
-0.25241882 -0.22566429 -0.26680177 0.1502458 -0.15878254 -0.10309565 -0.112212315 0.13963707
0.070894465 -0.22156839 -0.010765181 0.078753 -0.18361723 0.10924646 -0.67105615 -0.2119952
0.06982232 -0.01723709 0.68924993 -0.31568387 -0.051958304 -0.049278677 0.04892727 0.10261465
-0.15753017 -0.051296905 -0.07322239 -0.19906767 -0.10720166 -0.016852379 -0.10209309 -0.013494933
-0.1781485 -0.07593256 -0.112255484 -0.26215777 0.119333714 -0.050760105 0.14114448 0.11085445
0.03517154 0.14343242 -0.16285597 -0.06187304 -0.23444445 0.19816312 -0.048542257 -0.21383229
-0.48124146 -0.45909798 -0.18381537 -0.01070763 -0.17340696 0.009300345 -1.6704127 -0.27221584
0.059482392 0.10353267 0.48501462 0.66242504 -0.7044592 0.40741956 0.06342508 0.027006887
-0.116671234 -0.19230933 0.5153851 0.595714 -0.06614239 0.017950058 0.13332202 -0.0046195304
0.17586952 0.16025163 -0.089223795 0.193268 0.042724345 -0.096305005 0.933711 -0.008369674
0.19331165 0.69892454 0.05336524 -0.22202185 -0.098920204 -0.1591304 -0.13050671 -0.21385786
-0.039843947 0.007318841 0.035913445 -0.3146347 -0.17202726 0.016632127 0.285741 0.15285228
-0.0916869 -0.0052431715 -0.792359 -0.13714713 0.10770405 0.16869713 0.07317512 0.098019235

bias f4 [20]
00000000: ed0f 753f 204d a53f c188 afbd 343b 36be
00000010: f407 9cbf 8f84 47bf a09d 703f 7e23 5cbe
00000020: f0fa 9abd 17eb 26be cd52 1a3f a0cc 453f
00000030: 5e4d 64bf 39f9 2dbe 0988 dfbe 6428 c1bf
00000040: aced b8bf aa3f 16be 7e70 f33d 645b ac3f
0.95727426 1.2914162 -0.085710056 -0.17796022 -1.2189927 -0.77936643 0.93990517 -0.21497914
-0.07567394 -0.16300617 0.60282594 0.7726536 -0.8918055 -0.16989602 -0.43658474 -1.5090451
-1.4447532 -0.14672723 0.118866906 1.346539

weight f4 [2, 20]
00000000: 5902 cd3d d96f a63e ba99 14be 4399 153e
00000010: 20fb 4abf a8bf 8e3c 2ee7 2abd 53fa f03d
00000020: 589d 883e 8fa0 d0bd bd6e 253f 9fbc b63d
00000030: c327 64be f0a5 953c 9138 503c fe80 14be
00000040: 890d 10be d2e6 7bbd 4da9 643d d1b7 a93e
00000050: cdb9 babd 4ada 3e3d 23e3 c4bd 0c38 633d
00000060: a31d f53e d278 4e3e 05f9 febd f04d aa3d
00000070: 2dee 1a3e 8191 25be 60bf 32bf 4a2a 12be
00000080: f1b7 a23d 78ec 0b3d dd02 a83d 1e42 943e
00000090: 6a96 8b3e c3fc be3d f584 663d ed73 80be
0.100102134 0.32507208 -0.14511767 0.14609246 -0.79289436 0.017425373 -0.041724376 0.117664956
0.26682544 -0.10186874 0.646221 0.08922695 -0.22280793 0.018267602 0.012708799 -0.14502332
-0.14067663 -0.061499424 0.05582552 0.33148053 -0.0911747 0.046594895 -0.096136354 0.055473372
0.47874174 0.20163277 -0.124498405 0.08315647 0.1512992 -0.16168787 -0.69823265 -0.14273944
0.0794524 0.03416106 0.08203671 0.28956693 0.27263194 0.09325554 0.05627914 -0.25088444

bias f4 [2]
00000000: 4bfe 6a3f 5fab a1bf
0.9179427 -1.2630423
